layer     filters    size              input                output
    0 conv     32  3 x 3 / 2   224 x 224 x   3   ->   112 x 112 x  32
    1 conv     32  1 x 1 / 1   112 x 112 x  32   ->   112 x 112 x  32
    2 conv     32  3 x 3 / 1   112 x 112 x  32   ->   112 x 112 x  32
    3 conv     16  1 x 1 / 1   112 x 112 x  32   ->   112 x 112 x  16
    4 conv     96  1 x 1 / 1   112 x 112 x  16   ->   112 x 112 x  96
    5 conv     96  3 x 3 / 2   112 x 112 x  96   ->    56 x  56 x  96
    6 conv     24  1 x 1 / 1    56 x  56 x  96   ->    56 x  56 x  24
    7 conv    144  1 x 1 / 1    56 x  56 x  24   ->    56 x  56 x 144
    8 conv    144  3 x 3 / 1    56 x  56 x 144   ->    56 x  56 x 144
    9 conv     24  1 x 1 / 1    56 x  56 x 144   ->    56 x  56 x  24
   10 Shortcut Layer: 6
   11 conv    144  1 x 1 / 1    56 x  56 x  24   ->    56 x  56 x 144
   12 conv    144  3 x 3 / 2    56 x  56 x 144   ->    28 x  28 x 144
   13 conv     32  1 x 1 / 1    28 x  28 x 144   ->    28 x  28 x  32
   14 conv    192  1 x 1 / 1    28 x  28 x  32   ->    28 x  28 x 192
   15 conv    192  3 x 3 / 1    28 x  28 x 192   ->    28 x  28 x 192
   16 conv     32  1 x 1 / 1    28 x  28 x 192   ->    28 x  28 x  32
   17 Shortcut Layer: 13
   18 conv    192  1 x 1 / 1    28 x  28 x  32   ->    28 x  28 x 192
   19 conv    192  3 x 3 / 1    28 x  28 x 192   ->    28 x  28 x 192
   20 conv     32  1 x 1 / 1    28 x  28 x 192   ->    28 x  28 x  32
   21 Shortcut Layer: 17
   22 conv    192  1 x 1 / 1    28 x  28 x  32   ->    28 x  28 x 192
   23 conv    192  3 x 3 / 1    28 x  28 x 192   ->    28 x  28 x 192
   24 conv     64  1 x 1 / 1    28 x  28 x 192   ->    28 x  28 x  64
   25 conv    384  1 x 1 / 1    28 x  28 x  64   ->    28 x  28 x 384
   26 conv    384  3 x 3 / 1    28 x  28 x 384   ->    28 x  28 x 384
   27 conv     64  1 x 1 / 1    28 x  28 x 384   ->    28 x  28 x  64
   28 Shortcut Layer: 24
   29 conv    384  1 x 1 / 1    28 x  28 x  64   ->    28 x  28 x 384
   30 conv    384  3 x 3 / 1    28 x  28 x 384   ->    28 x  28 x 384
   31 conv     64  1 x 1 / 1    28 x  28 x 384   ->    28 x  28 x  64
   32 Shortcut Layer: 28
   33 conv    384  1 x 1 / 1    28 x  28 x  64   ->    28 x  28 x 384
   34 conv    384  3 x 3 / 1    28 x  28 x 384   ->    28 x  28 x 384
   35 conv     64  1 x 1 / 1    28 x  28 x 384   ->    28 x  28 x  64
   36 Shortcut Layer: 32
   37 conv    384  1 x 1 / 1    28 x  28 x  64   ->    28 x  28 x 384
   38 conv    384  3 x 3 / 2    28 x  28 x 384   ->    14 x  14 x 384
   39 conv     96  1 x 1 / 1    14 x  14 x 384   ->    14 x  14 x  96
   40 conv    576  1 x 1 / 1    14 x  14 x  96   ->    14 x  14 x 576
   41 conv    576  3 x 3 / 1    14 x  14 x 576   ->    14 x  14 x 576
   42 conv     96  1 x 1 / 1    14 x  14 x 576   ->    14 x  14 x  96
   43 Shortcut Layer: 39
   44 conv    576  1 x 1 / 1    14 x  14 x  96   ->    14 x  14 x 576
   45 conv    576  3 x 3 / 1    14 x  14 x 576   ->    14 x  14 x 576
   46 conv     96  1 x 1 / 1    14 x  14 x 576   ->    14 x  14 x  96
   47 Shortcut Layer: 43
   48 conv    576  1 x 1 / 1    14 x  14 x  96   ->    14 x  14 x 576
   49 conv    576  3 x 3 / 2    14 x  14 x 576   ->     7 x   7 x 576
   50 conv    160  1 x 1 / 1     7 x   7 x 576   ->     7 x   7 x 160
   51 conv    960  1 x 1 / 1     7 x   7 x 160   ->     7 x   7 x 960
   52 conv    960  3 x 3 / 1     7 x   7 x 960   ->     7 x   7 x 960
   53 conv    160  1 x 1 / 1     7 x   7 x 960   ->     7 x   7 x 160
   54 Shortcut Layer: 50
   55 conv    960  1 x 1 / 1     7 x   7 x 160   ->     7 x   7 x 960
   56 conv    960  3 x 3 / 1     7 x   7 x 960   ->     7 x   7 x 960
   57 conv    160  1 x 1 / 1     7 x   7 x 960   ->     7 x   7 x 160
   58 Shortcut Layer: 54
   59 conv    960  1 x 1 / 1     7 x   7 x 160   ->     7 x   7 x 960
   60 conv    960  3 x 3 / 1     7 x   7 x 960   ->     7 x   7 x 960
   61 conv    320  1 x 1 / 1     7 x   7 x 960   ->     7 x   7 x 320
   62 conv   1280  1 x 1 / 1     7 x   7 x 320   ->     7 x   7 x1280
   63 avg                        7 x   7 x1280   ->  1280
   64 conv   1000  1 x 1 / 1     1 x   1 x1280   ->     1 x   1 x1000
   65 softmax                                        1000
   66 cost                                           1000
Loading weights from mobilenet/test.weights...Done!
mobilenet/cat.jpg: Predicted in 3.128293 seconds.
